#map = affine_map<(d0, d1) -> (0, d1)>
#map1 = affine_map<(d0, d1) -> (d0, d1)>
module {
  func.func @main(%arg0: tensor<1x10xf32>) -> tensor<1x5xf32> {
    %cst = arith.constant dense_resource<torch_tensor_20_10_torch.float32> : tensor<20x10xf32>
    %cst_0 = arith.constant 0.000000e+00 : f32
    %cst_1 = arith.constant dense_resource<torch_tensor_5_20_torch.float32> : tensor<5x20xf32>
    %0 = tensor.empty() : tensor<10x20xf32>
    %transposed = linalg.transpose ins(%cst : tensor<20x10xf32>) outs(%0 : tensor<10x20xf32>) permutation = [1, 0] 
    %1 = tensor.empty() : tensor<1x20xf32>
    %2 = linalg.fill ins(%cst_0 : f32) outs(%1 : tensor<1x20xf32>) -> tensor<1x20xf32>
    %3 = linalg.matmul ins(%arg0, %transposed : tensor<1x10xf32>, tensor<10x20xf32>) outs(%2 : tensor<1x20xf32>) -> tensor<1x20xf32>
    %4 = linalg.generic {indexing_maps = [#map, #map1], iterator_types = ["parallel", "parallel"]} ins(%3 : tensor<1x20xf32>) outs(%1 : tensor<1x20xf32>) {
    ^bb0(%in: f32, %out: f32):
      %9 = arith.cmpf ugt, %in, %cst_0 : f32
      %10 = arith.select %9, %in, %cst_0 : f32
      linalg.yield %10 : f32
    } -> tensor<1x20xf32>
    %5 = tensor.empty() : tensor<20x5xf32>
    %transposed_2 = linalg.transpose ins(%cst_1 : tensor<5x20xf32>) outs(%5 : tensor<20x5xf32>) permutation = [1, 0] 
    %6 = tensor.empty() : tensor<1x5xf32>
    %7 = linalg.fill ins(%cst_0 : f32) outs(%6 : tensor<1x5xf32>) -> tensor<1x5xf32>
    %8 = linalg.matmul ins(%4, %transposed_2 : tensor<1x20xf32>, tensor<20x5xf32>) outs(%7 : tensor<1x5xf32>) -> tensor<1x5xf32>
    return %8 : tensor<1x5xf32>
  }
}

{-#
  dialect_resources: {
    builtin: {
      torch_tensor_20_10_torch.float32: "…",
      torch_tensor_5_20_torch.float32: "…"
    }
  }
#-}
